androidApp/src/main/ml/modelo_libras.tflite (tflite, 77248 bytes, 8 tensors)

arith.constant f4 [5, 32]
0	0xbe66cd78	-0.22539318
1	0xbeb0a44e	-0.34500355
2	0xbac7091c	-0.001518521
3	0x3ed7b87c	0.42132938
4	0x3d9c0a89	0.07619197
5	0x3f10eee9	0.5661455
6	0x3e492a72	0.19645098
7	0xbf267c55	-0.65033466
8	0x3f26b1c9	0.6511503
9	0x3e60ff00	0.21972275
10	0xbf25b75d	-0.64732915
11	0x3e73f648	0.23824418
12	0xbf12b970	-0.57314205
13	0x3ef606b1	0.4805198
14	0x3ecc2644	0.39872944
15	0xbf4454fb	-0.7669217
16	0xbe08d1ed	-0.1336133
17	0x3d6b5a3c	0.0574591
18	0xbf04acb2	-0.5182601
19	0xbca0d4a8	-0.019632652
20	0x3edb3dd2	0.42820603
21	0xbe7f09ec	-0.24906129
22	0xbf03cc81	-0.51483923
23	0x3e296fa7	0.16546498
24	0xbe793179	-0.24335279
25	0x3db9d093	0.090729855
26	0xbe707186	-0.23480806
27	0x3e533b12	0.20628002
28	0xbe17f057	-0.14837776
29	0xbf05bf48	-0.52245
30	0xbf05336d	-0.52031595
31	0xbebe6c25	-0.37191883
32	0xbdeffd52	-0.11718239
33	0x3f2c2d29	0.6725641
34	0x3d2fc7e6	0.042915247
35	0xbf5ed9d7	-0.8705115
36	0xbec0e579	-0.37675074
37	0xbf6cec10	-0.925477
38	0x3ee601b6	0.4492318
39	0x39cf963b	0.00039594047
40	0xbf612932	-0.87953484
41	0x3c56e40b	0.013115893
42	0xbecf19a2	-0.40449244
43	0x3e9cee45	0.30650535
44	0xbec6a8ad	-0.38800564
45	0xbe1bdd12	-0.1522105
46	0x3ead8835	0.3389298
47	0x3e8888e1	0.2666693
48	0x3eff0f14	0.4981619
49	0x3f550be7	0.83221287
50	0x3b24b3f7	0.0025131681
51	0x3daa2185	0.083071746
52	0xbf4116c0	-0.7542534
53	0x3f298517	0.66218704
54	0xbb19d752	-0.0023474288
55	0x3da82962	0.08211018
56	0x3e947f10	0.2900319
57	0x3e795926	0.24350414
58	0x3e8ebac3	0.27876863
59	0xbefa083a	-0.488344
60	0xbe986762	-0.29766375
61	0xbf18de39	-0.59714085
62	0x3f06d715	0.5267194
63	0x3ea01179	0.3126333
64	0x3c0ab2c6	0.0084654745
65	0xbed85d4c	-0.4225868
66	0x3e774d26	0.24150524
67	0x3f0d223e	0.55130374
68	0xbe73f396	-0.2382339
69	0xbf0007c0	-0.50011826
70	0x3ea92c90	0.3304181
71	0xbe46bc72	-0.19407824
72	0xbed5ede9	-0.41783074
73	0xbd42bd40	-0.047543764
74	0xbe8d3e3c	-0.27586544
75	0xbe48bf73	-0.19604282
76	0x3f0a0f21	0.53929335
77	0x3cbb85eb	0.022891006
78	0x3d8ac4c3	0.067758106
79	0x3e8dfd00	0.27732086
80	0xbf3dcb44	-0.74138284
81	0xbdf5cdb4	-0.120021254
82	0xbf0c1427	-0.5471825
83	0xbd1270b2	-0.035752006
84	0xbe61a051	-0.22033812
85	0x3deb9a31	0.11504019
86	0xbf10e144	-0.5659373
87	0x3eeb52f4	0.45961726
88	0x3eda7025	0.42663684
89	0xbe491039	-0.19635095
90	0x3cc99c9f	0.024610816
91	0x3ef62cef	0.48081157
92	0xbec774d2	-0.38956314
93	0x3ed38ffc	0.4132079
94	0xbe468320	-0.19385958
95	0x3e9731fd	0.29530326
96	0x3eb2cf1a	0.3492363
97	0xbf0d1ce8	-0.5512223
98	0xbe542a5a	-0.20719281
99	0xbdbf87cc	-0.09352073
100	0x3ef013a4	0.46889985
101	0xbe7486b2	-0.23879507
102	0xbf2ef7a1	-0.683466
103	0x3e4a983f	0.1978464
104	0xbdde8f43	-0.10867169
105	0xbe3ead41	-0.18620779
106	0x3ee27a06	0.44233721
107	0x3ee2bfcc	0.44286954
108	0xbdf40113	-0.119142674
109	0x3efe7694	0.49699843
110	0x3c82df90	0.015975744
111	0xbd9273f3	-0.07151022
112	0xbe676aef	-0.22599386
113	0xbea8cd59	-0.32969168
114	0x3dbaf6c5	0.09129099
115	0x3ebd75cd	0.37003937
116	0xbe9d4687	-0.3071787
117	0x3edcce31	0.43126062
118	0x3eb786b9	0.35844973
119	0xbf4344ab	-0.76276654
120	0xbf126c85	-0.5719684
121	0xbed7493f	-0.4204807
122	0x3f55ae74	0.8346932
123	0xbef3b26c	-0.47597063
124	0xbee3d9d2	-0.4450212
125	0xbf00d5af	-0.50326055
126	0x3e718db3	0.2358921
127	0xbc185cac	-0.009299438
128	0x3e857563	0.2606612
129	0x3e9574ca	0.29190665
130	0x3db1cda1	0.08681799
131	0xbf004f99	-0.50121456
132	0x3e814836	0.25250405
133	0x3f0e3997	0.55556625
134	0x3ea40849	0.3203757
135	0x3d8e56ad	0.06950126
136	0xbd813ca7	-0.06310397
137	0xbd4811b8	-0.048845023
138	0x3eea730b	0.45790896
139	0x3eb9d408	0.3629458
140	0xbe044839	-0.12918176
141	0xbf1e8bb9	-0.6193195
142	0xbe9b8ec4	-0.3038236
143	0x3a32076f	0.0006791269
144	0x3e959a4e	0.29219288
145	0xbf08ca2a	-0.5343348
146	0x3e96f6b2	0.2948509
147	0xbec8d876	-0.39227647
148	0x3e4193b8	0.18904006
149	0xbf277b93	-0.65422934
150	0x3df6c44b	0.12049159
151	0x3e3b75d0	0.1830666
152	0x3e62a5b0	0.22133517
153	0xbe1e74e4	-0.15474278
154	0xbeed55c4	-0.46354496
155	0x3eb5f01e	0.35534757
156	0x3f2a6215	0.6655591
157	0xbececcc9	-0.40390614
158	0x3b72885a	0.0037007541
159	0xbd9668ae	-0.07344185

arith.constant1 f4 [32, 64]
0	0x3d23a919	0.039956186
1	0xbd3dd749	-0.04634789
2	0xbe5be2d3	-0.21473245
3	0xbe05e267	-0.13074647
4	0xbd9991b5	-0.074984945
5	0xbe088b3e	-0.13334367
6	0xbe2b133c	-0.16706556
7	0x3d0f845f	0.03503835
8	0xbdf5187f	-0.11967563
9	0xbe7db0fe	-0.24774548
10	0xbe06b691	-0.13155581
11	0x3e47f516	0.19527087
12	0x3e6b6836	0.22988972
13	0xbcb34eda	-0.021888185
14	0xbd7030eb	-0.0586404
15	0x3da5e40f	0.08100139
16	0x3d5495bc	0.05190061
17	0xbe7fc28b	-0.24976556
18	0xbe5f2f5b	-0.21795408
19	0x3e543915	0.207249
20	0x3e58d5ad	0.21175261
21	0xbe2b9e05	-0.16759498
22	0x3db16a3b	0.0866284
23	0xbe2b147d	-0.16707034
24	0x3e0de2ef	0.138561
25	0xbd3d0cb1	-0.04615468
26	0xbdccbb15	-0.099966206
27	0xbe4fa119	-0.20276298
28	0xbe3e72fa	-0.18598548
29	0xbc8fd8fb	-0.017559519
30	0xbe4ca5d0	-0.19985127
31	0x3e47043c	0.19435209
32	0xbdcf8317	-0.10132425
33	0xbe221253	-0.15827303
34	0xbd71793c	-0.05895351
35	0xbe301a62	-0.17197564
36	0x3d9fa557	0.07795208
37	0x3e6b25a8	0.22963583
38	0xbcb58c34	-0.02216158
39	0x3d456777	0.048194375
40	0xbd8ba948	-0.06819397
41	0x3e4184f8	0.1889838
42	0xbe09acd9	-0.13444842
43	0x3d7f573f	0.062339064
44	0xbe697874	-0.22799855
45	0xbe16da6c	-0.14731759
46	0x3e4a5883	0.19760327
47	0x3e5ab9eb	0.21359985
48	0x3e092581	0.13393213
49	0xbd298cb4	-0.04139395
50	0xbd9504be	-0.07276295
51	0xbd74f93f	-0.059808012
52	0xbd43691e	-0.04770767
53	0xbe690973	-0.22757511
54	0x3de477a2	0.11155631
55	0xbe359739	-0.17733468
56	0xbe4f5e30	-0.20250773
57	0xbd89b5c1	-0.0672412
58	0xbe6ab511	-0.22920634
59	0x3e2bdcfa	0.16783515
60	0x3e277f2f	0.1635711
61	0xbdff8e20	-0.1247828
62	0xbcd11ec9	-0.025527375
63	0x3d742457	0.05960497
64	0xbe652f5d	-0.22381349
65	0x3d63ef12	0.055647917
66	0xbe8f6a7c	-0.2801093
67	0xbdc27f6f	-0.09496962
68	0xbdae8bcd	-0.08522759
69	0x3e6979d9	0.22800387
70	0xbd681280	-0.056658268
71	0x3ebd1186	0.36927432
72	0xbe4fc2a2	-0.2028909
73	0xbb3dc297	-0.0028955096
74	0x3e2bd4a0	0.16780329
75	0xbc724780	-0.014787555
76	0x3e161d8c	0.14659709
77	0x3e856d87	0.26060125
78	0xbda2d72e	-0.079511985
79	0x3ca7e4a8	0.020494774
80	0x3e6d936e	0.23200771
81	0x3ca6f4bf	0.020380376
82	0x3d190de8	0.037366778
83	0xbd791d0a	-0.06081871
84	0x3e417120	0.1889081
85	0x3d8ec9b6	0.06972067
86	0xbe087043	-0.13324074
87	0x3e30c4fc	0.17262644
88	0xbe8b72d5	-0.27236047
89	0x3ea47a36	0.3212449
90	0xbe61bc3d	-0.22044463
91	0xbe8dee9e	-0.27721113
92	0x3d2d6d91	0.04234082
93	0xbe939bda	-0.28829843
94	0x3eafdbae	0.3434729
95	0x3db82d83	0.08993056
96	0x3e2c4c49	0.16825975
97	0xbebdf439	-0.3710039
98	0x3e1ba3a5	0.15199144
99	0x3e0ba6fd	0.1363792
100	0x3cd0d083	0.025490051
101	0x3d26639e	0.040622346
102	0x3e67c5ae	0.22634003
103	0x3f0b3531	0.5437804
104	0x3d111a4a	0.03542546
105	0x3cc966e3	0.024585193
106	0x3d85f476	0.06540768
107	0x3e92e5fc	0.2869109
108	0xbde7f688	-0.11326319
109	0x3e86f05a	0.2635525
110	0x3e51af57	0.20477043
111	0xbe14059c	-0.14455265
112	0xbe03c703	-0.12868886
113	0x3de7b2ac	0.11313376
114	0x3e8c687a	0.2742346
115	0x3dce3d2a	0.1007026
116	0xbdc33c40	-0.09532976
117	0x3d205680	0.039144993
118	0xbed85fef	-0.42260692
119	0xbeac4702	-0.33647925
120	0xbcb3bf88	-0.021941915
121	0x3e44248e	0.1915457
122	0x3e160c57	0.14653145
123	0xbe242715	-0.16030534
124	0x3e2cf471	0.16890122
125	0xbeaaf2f1	-0.33388475
126	0x3dfca7b8	0.12336677
127	0xbdc81eb5	-0.09771482
128	0xbdacc2f0	-0.08435619
129	0xbe07bb5b	-0.13255064
130	0xbe7d7c76	-0.2475451
131	0x3da94d7d	0.08266733
132	0x3e5bbd7d	0.21459003
133	0xbe524ff4	-0.20538312
134	0x3dc4abe2	0.096030965
135	0x3d86ac69	0.065758534
136	0x3d0e87f8	0.03479764
137	0x3e5c1c9b	0.21495287
138	0xbe2a37b5	-0.16622813
139	0xbe3a06ee	-0.18166706
140	0x3d9362d9	0.07196588
141	0x3e34e1a7	0.17664205
142	0x3e3e4415	0.18580659
143	0xbe6b1c17	-0.22959934
144	0x3e40cfad	0.18829222
145	0xbe1c8017	-0.15283237
146	0x3d675e26	0.05648627
147	0xbe606668	-0.21914065
148	0xbd47bc66	-0.048763655
149	0xbe018179	-0.12647046
150	0xbdd953e3	-0.10611703
151	0x3d91624f	0.07098829
152	0x3e1d2fa7	0.15350209
153	0x3db07c09	0.08617408
154	0x3e3e1373	0.18562107
155	0xbe7471dc	-0.23871559
156	0x3c88368a	0.016627569
157	0x3e6a51d4	0.22882777
158	0x3d8c611c	0.0685446
159	0xbe636aac	-0.22208661
160	0xbe8094f0	-0.2511363
161	0xbc6b7a6e	-0.014372451
162	0xbe5fb107	-0.21844874
163	0xbdf4387b	-0.11924835
164	0x3e4ea63f	0.20180605
165	0x3d1c122e	0.038103275
166	0x3dfb8bc0	0.122825146
167	0x3e13418f	0.14380477
168	0x3db3ffcb	0.08789023
169	0xbcc2ae0c	-0.023764633
170	0x3e4001e7	0.18750726
171	0x3dc4f5b2	0.09617175
172	0x3e4ea870	0.20181441
173	0x3e3a6132	0.1820114
174	0x3e7401bc	0.23828787
175	0xbe0c239b	-0.13685457
176	0xbe1d89b4	-0.15384561
177	0xbdf82b1b	-0.12117597
178	0xbde1e492	-0.110299245
179	0x3e6eba6c	0.23313302
180	0xbe77f78a	-0.24215522
181	0xbd8b640e	-0.06806193
182	0xbe57c03b	-0.21069424
183	0xbe142bf6	-0.14469895
184	0xbe624de9	-0.22100033
185	0xbd3a7d13	-0.045529436
186	0xbc17513c	-0.009235676
187	0x3e459349	0.19294466
188	0xbe025c59	-0.1273054
189	0xbe7106b1	-0.23537709
190	0xbe81a9c3	-0.2532483
191	0xbe111412	-0.14167812
192	0x3e33a243	0.17542367
193	0x3ed5ec0a	0.41781646
194	0xbda37a75	-0.07982341
195	0x3df34cfe	0.118799195
196	0xbdb928d0	-0.090409875
197	0x3cbca2c2	0.023026828
198	0x3d2881fb	0.041139584
199	0xbe522ce7	-0.20524941
200	0x3ebee020	0.3728037
201	0x3ec6a938	0.3880098
202	0x3ebcccef	0.36875102
203	0xbda8db3d	-0.082449414
204	0xbeb2d6ed	-0.349296
205	0x3e02f7c5	0.12789829
206	0xbcb8b33a	-0.0225464
207	0x3d16836b	0.036746424
208	0xbd8e9a17	-0.06962984
209	0xbdc525d5	-0.096263565
210	0x3cabcb86	0.020971071
211	0x3ee6dfa5	0.45092502
212	0xbe98e0b5	-0.29858938
213	0xbe89db4c	-0.26925123
214	0x3e836837	0.25665447
215	0xbe352a1a	-0.17691842
216	0x3ec28546	0.37992305
217	0xbe6c5553	-0.23079424
218	0xbd8189de	-0.06325124
219	0x3df0107e	0.11721896
220	0xbe96ff12	-0.29491478
221	0x3eb99f0c	0.36254156
222	0xbe135b5c	-0.1439032
223	0xbcf0eb0a	-0.02940895
224	0x3dcaafc3	0.09896805
225	0x3ebf0a2a	0.37312442
226	0x3e58984d	0.21151848
227	0xbdbe3608	-0.092876494
228	0xbdb419ec	-0.08794007
229	0xbd861847	-0.06547599
230	0xbe976fc7	-0.29577467
231	0xbe95afed	-0.29235783
232	0xbdd3cd11	-0.10341848
233	0xbe31e05d	-0.17370744
234	0x3ebbe473	0.3669773
235	0xbe69aacf	-0.22819065
236	0x3ed46e01	0.41490176
237	0xbe204855	-0.15652592
238	0xbda2db50	-0.07951987
239	0x3ef8e44c	0.48611677
240	0x3edac40c	0.42727697
241	0xbc9b7b69	-0.018979745
242	0x3cde0ab2	0.02710471
243	0xbe8dc1d0	-0.2768693
244	0x3e741f55	0.23840077
245	0x3ea78e79	0.32725886
246	0x3f075461	0.52863127
247	0x3e5d6128	0.21619093
248	0x3e273cc1	0.1633177
249	0x3ea7070e	0.3262257
250	0xbe5acd81	-0.21367456
251	0x3ececc0e	0.40390056
252	0xbdb40626	-0.08790235
253	0x3e2c8249	0.16846575
254	0xbdfc2cf1	-0.123132594
255	0xbe2d1686	-0.16903123

arith.constant2 f4 [64, 128]
0	0x3a7008cb	0.00091565837
1	0xbe08c8ec	-0.13357896
2	0xbe7eb103	-0.24872212
3	0x3e3ae012	0.18249539
4	0x3cab614b	0.020920416
5	0xbc3a7f15	-0.011382838
6	0x3d682208	0.05667308
7	0xbdbc220f	-0.09186184
8	0x3d7c0085	0.061523933
9	0xbc320946	-0.010866469
10	0x3dca192a	0.09868081
11	0x3e55de30	0.20885539
12	0xbc40a39d	-0.011757758
13	0x3c9c7588	0.019099012
14	0x3d9e73c6	0.07736926
15	0xbe032a13	-0.12809019
16	0xbe2fe52e	-0.17177269
17	0xbe205cab	-0.1566035
18	0xbea16b70	-0.3152728
19	0xbe2fd41d	-0.17170759
20	0x3dab44c3	0.08362725
21	0x3def5748	0.116865695
22	0xbe2a3e43	-0.16625313
23	0xbe2b66ea	-0.16738477
24	0xbe414240	-0.18872929
25	0x3df59b90	0.11992562
26	0x3c54c390	0.012986079
27	0x3dd04138	0.101686895
28	0x3e889cb7	0.26682064
29	0x3e2463cc	0.16053694
30	0x3e078db7	0.13237654
31	0xbdc7d383	-0.097571395
32	0xbe80558b	-0.25065264
33	0x3cf126be	0.029437419
34	0xbcb063a8	-0.021531895
35	0x3ce7bf10	0.028289348
36	0xbc01a459	-0.007912719
37	0xbd95fbcd	-0.07323418
38	0x3e509603	0.20369725
39	0x3de98357	0.11402004
40	0x3bbc52e0	0.005747184
41	0xbe70701c	-0.23480266
42	0xbd050f71	-0.03248543
43	0x3d54fbca	0.051997937
44	0x3e691996	0.22763667
45	0x3def003e	0.11669968
46	0x3e7b8ccb	0.24565427
47	0x3d8c0539	0.06836934
48	0x3ddc1a30	0.10747182
49	0x3e18e9b3	0.14932899
50	0x3e8e5c5b	0.27804837
51	0x3e07ede0	0.13274336
52	0x3d40d15e	0.047074668
53	0x3d36841e	0.04455959
54	0x3e0687a7	0.13137685
55	0x3e498eb4	0.19683343
56	0xbe206d28	-0.1566664
57	0xbe15c0cd	-0.14624329
58	0xbdad1777	-0.08451741
59	0x3c8c3a66	0.01711769
60	0x3e082af3	0.13297634
61	0x3e7e3186	0.24823579
62	0x3d3bb825	0.04582991
63	0xbd94a5bf	-0.07258176
64	0x3eb76df3	0.35826072
65	0xbda59ff5	-0.0808715
66	0x3e2e932a	0.17048326
67	0x3e596575	0.21230109
68	0xbdd1c6fa	-0.1024303
69	0x3d8fe523	0.07026126
70	0xbd45f23b	-0.048326712
71	0xbde190f1	-0.110139735
72	0xbd061c3c	-0.03274177
73	0x3e025e13	0.12731199
74	0x3d1690d6	0.03675922
75	0xbdbf975c	-0.093550414
76	0xbc1e59d3	-0.00966497
77	0xbe28ce83	-0.16485028
78	0x3e1d78d8	0.1537813
79	0xbdc8003c	-0.0976567
80	0xbbf1e70a	-0.0073822783
81	0x3ecb61a5	0.39722934
82	0x3e7f9d0d	0.24962254
83	0xbb032410	-0.0020010509
84	0x3e388650	0.18019986
85	0xbe6c87ab	-0.23098628
86	0x3d65cecc	0.05610542
87	0x3e4a9607	0.19783793
88	0xbe8c9f02	-0.27465063
89	0x3e31898c	0.17337626
90	0x3e65ef8c	0.22454661
91	0x3e18d235	0.14923938
92	0xbcc0ab31	-0.02351913
93	0x3e00f9c6	0.12595281
94	0x3e00a17e	0.12561604
95	0x3d46dc98	0.04855022
96	0x3dcf7fa8	0.1013177
97	0x3c709b30	0.014685437
98	0x3e193800	0.14962769
99	0x3d011110	0.031510413
100	0xbc059e8d	-0.008155477
101	0x3dddfcd2	0.10839237
102	0x3e21f1c3	0.15814881
103	0xbd938f81	-0.072051056
104	0xbdc3a07f	-0.095520966
105	0xbe8d6e6d	-0.2762331
106	0xbea8f7a9	-0.3300145
107	0xbe23f87f	-0.16012762
108	0xbea54ac5	-0.32283607
109	0x3de6b817	0.11265581
110	0xbe9adba4	-0.30245697
111	0x3ccb9556	0.024851482
112	0x3dafad94	0.08578029
113	0xbe99cfda	-0.3004139
114	0xbccd20c5	-0.02504004
115	0x3d87782b	0.06614717
116	0xbe4f63e2	-0.20252946
117	0xbbc77260	-0.0060866326
118	0xbd8635e3	-0.06553247
119	0x3d258884	0.040413395
120	0x3e0e5a76	0.13901696
121	0xbe1083f4	-0.14112836
122	0xbe391730	-0.18075252
123	0xbe271b90	-0.16319108
124	0xbb8adf30	-0.004238032
125	0xbebca93a	-0.3684786
126	0x3d319cdf	0.043362495
127	0x3ca3e7e0	0.020008028
128	0x3e43371b	0.1906399
129	0x3e60f418	0.21968114
130	0x3eb61edf	0.35570428
131	0x3ca49d07	0.020094408
132	0xbdb0c92d	-0.08632121
133	0xbcc87d68	-0.02447386
134	0x3ef83251	0.48475888
135	0xbe2c5524	-0.16829354
136	0x3e0c16fd	0.13680644
137	0x3e15f03d	0.14642425
138	0x3e5ca1dc	0.2154612
139	0xbdb640b9	-0.088990636
140	0x3d71f102	0.059067734
141	0xbdfa19ab	-0.12211927
142	0xbe0ef1cb	-0.13959424
143	0x3e1d3eb1	0.15355946
144	0x3e98a77d	0.29815283
145	0x3e59907d	0.21246524
146	0x3ed9394e	0.42426533
147	0x3e0c296d	0.13687678
148	0x3e7e920d	0.24860401
149	0xbd39c752	-0.045356102
150	0xbe2d615e	-0.16931674
151	0x3e168e03	0.1470261
152	0x3e4d8677	0.20070826
153	0xbd4a022e	-0.049318485
154	0x3e26d71b	0.16292994
155	0x3e604c75	0.21904166
156	0x3e976a13	0.29573116
157	0xbe1ef36f	-0.1552255
158	0xbdf918fb	-0.12162968
159	0xbe07eef1	-0.13274743
160	0x3e14787c	0.14499086
161	0xbe166d69	-0.14690174
162	0xbd95cc53	-0.073143624
163	0x3d00dc4c	0.03146009
164	0x3d20b8dc	0.039238796
165	0xbb22bdf8	-0.0024832468
166	0x3d4051f0	0.04695314
167	0xbd7ea76f	-0.062171396
168	0xbc6efca0	-0.014586598
169	0x3e477e5c	0.19481796
170	0x3cee8fb1	0.029121252
171	0x3ed4489c	0.41461647
172	0xbe6bb277	-0.23017298
173	0xbbefd481	-0.0073190336
174	0xbde3dc28	-0.11125976
175	0x3c8e0c28	0.01733978
176	0x3e157941	0.14597036
177	0x3de84212	0.11340727
178	0xbe3018cf	-0.17196964
179	0xbe07eca2	-0.13273862
180	0x3dbd9f89	0.092589445
181	0x3e4c0169	0.19922413
182	0x3d8aa09b	0.06768914
183	0xbe39cbdc	-0.18144172
184	0x3e5095a7	0.20369588
185	0x3e7afd0d	0.24510594
186	0x3da4870a	0.08033569
187	0x3e2813bf	0.16413783
188	0x3da17a23	0.07884624
189	0x3e719195	0.23590691
190	0x3db6f75a	0.08933897
191	0x3eae4297	0.3403518
192	0xbea15913	-0.3151327
193	0xbe0d48de	-0.13797328
194	0xbd1f9511	-0.03896052
195	0xbe110a18	-0.14164007
196	0x3db23b13	0.08702674
197	0x3e1c8bc1	0.15287687
198	0x3e10d451	0.14143492
199	0x3e04b0cc	0.12958068
200	0x3e019182	0.12653163
201	0xbe0aea5e	-0.13565966
202	0xbe9e626d	-0.30934468
203	0x3ed5e373	0.41775092
204	0xbc1e1bd2	-0.009650188
205	0xbcea88be	-0.028629657
206	0x3e84afc2	0.25915343
207	0x3bbcf5bf	0.0057666
208	0x3e281ead	0.16417952
209	0xbd76ece4	-0.06028451
210	0xbe916c49	-0.28402928
211	0xbd29d417	-0.04146203
212	0x3db0be42	0.08630039
213	0x3f007c4b	0.50189656
214	0xbd952a38	-0.07283443
215	0xbe538537	-0.20656286
216	0x3ec380e5	0.38184276
217	0xbe92117f	-0.28528973
218	0xbd5f3f9b	-0.05450402
219	0x3d8b390c	0.0679799
220	0xbe2f7c82	-0.1713734
221	0xbd59ddf3	-0.053190183
222	0x3b7804f3	0.0037844747
223	0xbc0a03d0	-0.0084237605
224	0xbe8f4511	-0.2798238
225	0x3c7bcc00	0.015368462
226	0xbd006e94	-0.031355456
227	0xbd3b18d8	-0.04567799
228	0x3d94c625	0.072643556
229	0xbe20321e	-0.15644118
230	0xbdda6fab	-0.1066583
231	0xbbafa1cc	-0.005359864
232	0xbdaf8351	-0.085699685
233	0x3dd99f0a	0.106260374
234	0x3e8b64b8	0.2722528
235	0xbdd9c78a	-0.10633762
236	0x3e41c1a6	0.18921527
237	0xbdc789ad	-0.097430564
238	0x3e57ec5d	0.21086259
239	0xbe1aaacc	-0.15104216
240	0x3e1bd507	0.15217982
241	0xbd3b3eb0	-0.04571408
242	0x3deb0826	0.114761636
243	0x3de1866b	0.11011966
244	0x3da5b8fb	0.08091923
245	0x3dbec3b6	0.09314673
246	0x3c3fc9f9	0.011705869
247	0x3dd7b9e2	0.10533501
248	0x3da160d0	0.07879794
249	0x3d919d13	0.07110038
250	0x3e20fbab	0.15721004
251	0x3db0621e	0.08612464
252	0xbd836475	-0.06415645
253	0xbd631069	-0.05543557
254	0x3dfce5b6	0.123485014
255	0xbe25365b	-0.16134016

arith.constant3 f4 [5]
0	0xbcea2205	-0.028580675
1	0xbd941b29	-0.07231743
2	0x3c55df74	0.013053764
3	0x3d6a7c12	0.05724723
4	0x3c626016	0.013816854

arith.constant4 f4 [32]
0	0xbba4f8e7	-0.0050345543
1	0x3d3c666b	0.04599611
2	0xbb2761a2	-0.0025540371
3	0x3d95f29c	0.07321665
4	0x3d545ac3	0.05184437
5	0x3dab07c7	0.08351093
6	0x3d269a1d	0.040674318
7	0x3d9d4ffe	0.07681273
8	0x3de4d43c	0.11173293
9	0xbb716905	-0.0036836278
10	0x3d8e86bc	0.06959292
11	0x3d3cf053	0.04612763
12	0x3d8b6d60	0.06807971
13	0x3d11cccf	0.03559571
14	0xbbd64056	-0.006538431
15	0x3d9cbb3a	0.07652898
16	0x3d5c445b	0.053776126
17	0xbc8db3f4	-0.017297722
18	0x3d68afc9	0.056808267
19	0x3d0c67b9	0.034278605
20	0x3da34e03	0.07973864
21	0x3d1803f1	0.037113134
22	0x3d1e59c6	0.038659833
23	0x3d78f529	0.060780678
24	0x3d5951c8	0.05305651
25	0xbb3e1178	-0.0029002111
26	0x3d10f088	0.03538564
27	0x3d70d313	0.058795046
28	0x3d6a67b7	0.057227816
29	0x3d02c64a	0.031927384
30	0x3db1c864	0.086807996
31	0xbb833b40	-0.004004866

sequential_1/dense_1_2/BiasAdd/ReadVariableOp f4 [64]
0	0x3d72396b	0.05913679
1	0x3d5e2755	0.05423673
2	0xbc8a87cd	-0.016910458
3	0x3de25d6c	0.11052975
4	0x3dad6c34	0.08467904
5	0x3dc850e7	0.09781056
6	0x3db121bf	0.08649015
7	0x3e00c3de	0.12574717
8	0x3dc63e79	0.096798845
9	0x3d2199d2	0.039453335
10	0x3dbb90f6	0.091585085
11	0x3d094cea	0.033520617
12	0x3da83a33	0.082142256
13	0x3ddfe71f	0.10932755
14	0x3d9cdb4c	0.07659015
15	0x3d835629	0.06412918
16	0x3d76c8e5	0.06025018
17	0x3df03fca	0.11730917
18	0x3d8474cd	0.064675905
19	0x3da05adb	0.07829829
20	0x3d59a939	0.0531399
21	0x3d8650f8	0.06558412
22	0x3d8ed120	0.06973481
23	0x3dc13fab	0.09435972
24	0x3db388f4	0.08766356
25	0x3de714a1	0.112832315
26	0x3d56c0ad	0.052429844
27	0x3d8fd87c	0.07023713
28	0x3dc8ea1c	0.09810278
29	0x3d4cce5a	0.05000148
30	0x3e1159a6	0.14194354
31	0x3ce17455	0.027521292
32	0x3dd47a00	0.10374832
33	0x3dfd7895	0.12376515
34	0x3dd34529	0.10315926
35	0x3e5115a6	0.20418414
36	0x3cf02e78	0.029319033
37	0x3d369288	0.044573337
38	0x3de451ed	0.111484386
39	0x3d920fc5	0.07131914
40	0x3dc26893	0.09492602
41	0x3dad14cd	0.08451233
42	0x3ced0843	0.028934604
43	0x3e0f4475	0.13990958
44	0x3d9ad40c	0.07559976
45	0x3db37e36	0.08764307
46	0x3dd408d2	0.10353245
47	0x3e0a1e7f	0.13488196
48	0x3d865114	0.06558433
49	0x3d25be3b	0.04046462
50	0x3e04568f	0.12923644
51	0x3d97f53c	0.074198216
52	0x3e79aac6	0.24381551
53	0x3da4d93b	0.08049246
54	0x3d9baef7	0.07601731
55	0x3d5685e8	0.052373797
56	0x3d1d9e23	0.03848089
57	0x3cb8dcbe	0.022566196
58	0x3dd619ed	0.10454164
59	0x3ddd01ed	0.10791383
60	0x3daabbbb	0.08336588
61	0x3d662e1b	0.056196313
62	0x3d90ab88	0.07063967
63	0x3d804ef4	0.06265059

sequential_1/dense_1/BiasAdd/ReadVariableOp f4 [128]
0	0x3cd07982	0.025448564
1	0x3bdbb842	0.006705315
2	0x3d9c0f57	0.07620113
3	0x3c8119c0	0.015759349
4	0xbaa75a34	-0.0012767971
5	0x3c9c20a0	0.019058526
6	0x3afecaff	0.001943916
7	0x00000000	0.0
8	0xbd44ed0f	-0.04807764
9	0x3cb2f85c	0.021846943
10	0x3c8a1dc9	0.016859906
11	0xbb531838	-0.003221048
12	0x3cc2b3e3	0.023767417
13	0x00000000	0.0
14	0x00000000	0.0
15	0x3d341e5b	0.04397426
16	0x3d259051	0.040420834
17	0x3c0ee08e	0.00872053
18	0x3da966e8	0.08271581
19	0xbb70ba0a	-0.0036731982
20	0x3d71c525	0.059025902
21	0xbcf17f8f	-0.02947977
22	0x00000000	0.0
23	0x00000000	0.0
24	0x3cd1fe2c	0.025633894
25	0xbc65a593	-0.014016527
26	0x00000000	0.0
27	0xbd3baf8f	-0.045821723
28	0x3cf197c9	0.029491322
29	0xbc672903	-0.014108899
30	0xbce9b2ca	-0.028527636
31	0x3d2a2b53	0.041545223
32	0x3d71d03a	0.05903647
33	0x3bd670c7	0.006544206
34	0x00000000	0.0
35	0x00000000	0.0
36	0x3d74aa97	0.059733
37	0xba8b438b	-0.0010624988
38	0xbd7441f1	-0.0596332
39	0xbc4a6db2	-0.012355255
40	0x00000000	0.0
41	0x3d7cd74d	0.061728764
42	0x3cd9ab02	0.0265708
43	0x3cd1dc6f	0.025617806
44	0xbd2993ef	-0.041400846
45	0xbd5de401	-0.05417252
46	0xbcfd3efa	-0.030913819
47	0xbc56ce82	-0.013110759
48	0xbcabea49	-0.02098574
49	0x00000000	0.0
50	0xbced996d	-0.029003823
51	0xbd20cd61	-0.039258365
52	0xbb87846e	-0.00413566
53	0x3cf4b354	0.029870667
54	0x3b47c610	0.0030483045
55	0xbd3256e1	-0.043539885
56	0x3d530751	0.05152065
57	0xbb28000a	-0.002563479
58	0x00000000	0.0
59	0x3cb5828a	0.022156972
60	0x3d76026b	0.0600609
61	0xbcf502b3	-0.029908514
62	0x3b49959d	0.0030759342
63	0x3c259fa1	0.010108859
64	0xbd6ee9c2	-0.058328398
65	0x00000000	0.0
66	0xbccf4169	-0.025299745
67	0x3c98ebf8	0.018667206
68	0xbbe5b16a	-0.007009675
69	0x3d0478b8	0.03234169
70	0xbd1afa71	-0.037836496
71	0x3ca34c01	0.019933702
72	0xbb1141de	-0.0022164504
73	0xbad0678d	-0.0015900001
74	0xbcdc96ad	-0.026927317
75	0x3d6f2738	0.05838701
76	0xbc1cdf30	-0.009574696
77	0x3d310e36	0.043226443
78	0x3d5190be	0.051163428
79	0xbd46cae8	-0.04853335
80	0xbd5306e0	-0.05152023
81	0xbd575572	-0.05257172
82	0xbd6e41a5	-0.058168072
83	0xbc89ec6f	-0.016836373
84	0xbd276dab	-0.040876072
85	0x3d3055be	0.04305052
86	0x00000000	0.0
87	0xbd4aca5e	-0.0495094
88	0x3d3e18cf	0.046410378
89	0xbd5c90e8	-0.05384913
90	0x3cb5e747	0.022205008
91	0xbd0dfc46	-0.034664415
92	0x3c1199df	0.008886783
93	0x3b008c10	0.0019614734
94	0x3ca98d97	0.020697398
95	0x00000000	0.0
96	0xbc06dd5c	-0.008231487
97	0x00000000	0.0
98	0xbbddf9f2	-0.0067741806
99	0x00000000	0.0
100	0x3d59c64e	0.053167634
101	0x00000000	0.0
102	0xbd0429cb	-0.03226642
103	0xbc8ca615	-0.017169038
104	0xbbc2b124	-0.005941527
105	0x3d5aa152	0.053376503
106	0x3d848b52	0.06471886
107	0x3d7622de	0.060091846
108	0xbd1e02f2	-0.038577028
109	0xbd1fcf89	-0.03901628
110	0x3db243e1	0.08704353
111	0xbbbd0b9b	-0.0057692057
112	0x3d7e6e3d	0.06211685
113	0x3d8ec69c	0.069714755
114	0x3ce6c412	0.028169665
115	0xbb5a78b4	-0.0033336105
116	0x3dc6c642	0.097057834
117	0x00000000	0.0
118	0x3da9ac95	0.082848705
119	0x00000000	0.0
120	0x3d2f421a	0.04278765
121	0xbd07aabd	-0.033121813
122	0x3d2788b2	0.040901847
123	0x3d15bb6a	0.036555685
124	0xbcd32ba7	-0.025777651
125	0xbc430700	-0.011903524
126	0x3c996de9	0.018729167
127	0xbc6a8a26	-0.014315164

sequential_1/dense_1/MatMul f4 [128, 63]
0	0xbe78d298	-0.24299085
1	0xbd1f3a52	-0.038873978
2	0x3e2ceced	0.16887255
3	0xbd943b39	-0.07237858
4	0x3be1a8fd	0.0068866
5	0x3d9b3d86	0.07580094
6	0xbd254558	-0.040349334
7	0x3d612d29	0.05497471
8	0xbb631ed5	-0.0034655828
9	0xbb61b4ae	-0.003443997
10	0x3d67098f	0.0564056
11	0xba6c4f00	-0.00090144575
12	0x3e1d5676	0.15365013
13	0xbb8e1d5f	-0.0043369974
14	0x3e23854c	0.15968817
15	0x3d9b1547	0.07572418
16	0x3e0da808	0.1383363
17	0xbe9ae467	-0.30252382
18	0x3d729d8d	0.059232283
19	0x3ccd62f1	0.025071593
20	0xbd9c2a20	-0.07625222
21	0x3d1f2c4f	0.038860615
22	0xbdbad3d6	-0.09122436
23	0x3d99a0f6	0.07501404
24	0x3de8fdd4	0.11376539
25	0x3d687a6a	0.05675737
26	0x3e3c1b09	0.18369688
27	0xbe812cbf	-0.2522945
28	0xbd2e8645	-0.04260852
29	0xbe536ef5	-0.20647795
30	0xbd300984	-0.042977825
31	0x3e1494f2	0.14509943
32	0xbdf71a81	-0.12065602
33	0x3d352c0f	0.04423147
34	0x3de22a04	0.1104317
35	0x3df44ec7	0.11929088
36	0x3e1bdaae	0.15220138
37	0xbe960d75	-0.29307142
38	0x3d832ab2	0.06404628
39	0xbe4c3054	-0.1994031
40	0x3e047952	0.12936905
41	0x3e2a2e42	0.16619208
42	0xbd31cc53	-0.04340775
43	0x3d8ef95d	0.06981156
44	0x3debf905	0.11522106
45	0x3d01e568	0.03171292
46	0xbde9e041	-0.11419726
47	0xbd3ede01	-0.04659844
48	0x3d37468d	0.044745017
49	0xbce43910	-0.02785924
50	0x3e4695b9	0.19393052
51	0xbde7ec25	-0.11324338
52	0x3d14bce0	0.036312938
53	0xbd71f22f	-0.059068855
54	0x3d9fdf3e	0.07806252
55	0x3d3f9ac1	0.046778444
56	0x3e4af4c1	0.19819929
57	0x3e55b068	0.20868075
58	0x3d523a68	0.05132523
59	0xbd963ae0	-0.07335448
60	0x3d241b91	0.040065352
61	0xbe87736d	-0.2645525
62	0x3ccd7e64	0.025084682
63	0x3e02b073	0.12762623
64	0xbd1a8740	-0.03772664
65	0x3d4f0ffc	0.050552353
66	0xba6c1602	-0.0009005965
67	0x3db18ccd	0.08669434
68	0xbd97ff2e	-0.074217185
69	0x3d6045a1	0.054753903
70	0x3e0c1c72	0.13682726
71	0xbde56a7a	-0.112019494
72	0xbe302218	-0.17200506
73	0xbe1ae8e8	-0.15127909
74	0x3e3bc1e0	0.18335676
75	0x3daf5b6e	0.08562361
76	0x3d642779	0.055701707
77	0x3e20a4f5	0.15687926
78	0x3d452c76	0.048138104
79	0x3d6cdf58	0.057830185
80	0xbe88017b	-0.2656363
81	0x3c94773e	0.018123265
82	0x3de3b805	0.11119083
83	0xbe6ba2bd	-0.23011298
84	0x3ba93bd9	0.005164605
85	0x3e98322c	0.29725778
86	0xbe45ba9e	-0.1930947
87	0x3e23223b	0.15931027
88	0x3ea20aa0	0.3164873
89	0xbc77604e	-0.015098644
90	0xbe2f506c	-0.17120522
91	0x3cbc9728	0.023021296
92	0xbe57a7cb	-0.21060102
93	0xbc8c470a	-0.017123718
94	0xbdcbec6f	-0.099572055
95	0x3dedfb2d	0.116201736
96	0xbdf0c597	-0.11756437
97	0xbe42e8f6	-0.1903418
98	0x3d9686e0	0.07349944
99	0x3d250b52	0.040294
100	0xbe949c0f	-0.29025313
101	0x3e0b06d2	0.1357682
102	0x3beb46db	0.0071800775
103	0x3d984f19	0.07436962
104	0x3c940c48	0.018072262
105	0x3e16dcf3	0.14732723
106	0xbe01d460	-0.12678671
107	0x3dea4998	0.11439818
108	0xbdeb2e15	-0.11483399
109	0xbce7e66d	-0.028308118
110	0x3e08ab33	0.13346557
111	0x3c8094e9	0.015696006
112	0xbb1fbb74	-0.0024373205
113	0xbddbd0e6	-0.107332036
114	0xbe5d016b	-0.21582572
115	0x3da0f3d2	0.07859005
116	0x3e16adb9	0.14714707
117	0x3de64a56	0.11244647
118	0x3dd36ce2	0.10323502
119	0x3e767365	0.24067457
120	0x3d559d97	0.052152243
121	0xbe659934	-0.22421724
122	0x3e2aa6a4	0.16665131
123	0x3c305a4a	0.010763714
124	0xbd90e303	-0.07074549
125	0x3dc644a5	0.09681062
126	0xbd093203	-0.03349496
127	0x3daf6211	0.085636266
128	0xbe6f933b	-0.23396008
129	0x3dac3895	0.0840923
130	0x3df1debf	0.118100636
131	0x3ea3cf58	0.31994128
132	0x3b41cc12	0.0029571098
133	0xbd62c5ec	-0.055364534
134	0x3e6cce1c	0.231255
135	0xbd091898	-0.03347072
136	0xbe2bd165	-0.16779096
137	0x3e5ab449	0.21357836
138	0xbe328a1a	-0.17435494
139	0xbe4d5190	-0.20050645
140	0x3e667ab5	0.22507747
141	0xbd81b562	-0.06333424
142	0xbdd7cf33	-0.10537567
143	0x3ec71782	0.38885123
144	0x3ddeaaa4	0.10872391
145	0xbdb2ea7e	-0.08736132
146	0x3e07d022	0.1326299
147	0x3d7ccb74	0.061717466
148	0x3e699a4f	0.2281277
149	0x3cd1aa72	0.02559397
150	0xbdd558ab	-0.10417303
151	0x3e808a28	0.25105405
152	0x3d9f09d4	0.077655464
153	0x3e29001d	0.1650395
154	0x3d378a0a	0.04480938
155	0xbc8e3d1a	-0.01736312
156	0x3dde0ec7	0.10842662
157	0xbdb6c313	-0.08923926
158	0xbdca618d	-0.098818876
159	0x3d3707ab	0.044685047
160	0x3e501807	0.20321666
161	0xbd9a1633	-0.075237654
162	0xbd85a2a4	-0.06525162
163	0xbd5875f9	-0.052846882
164	0x3e14925e	0.1450896
165	0xbc9e0212	-0.019288097
166	0xbdb4bc46	-0.08824973
167	0x3da63915	0.08116356
168	0xbd879c19	-0.0662157
169	0xbc1e685a	-0.009668434
170	0xbe88735c	-0.26650512
171	0x3dd47e14	0.1037561
172	0x3d759b3c	0.059962496
173	0xbd114bab	-0.035472553
174	0xbde0fccf	-0.109857194
175	0xbd2d847c	-0.042362675
176	0x3c0c8f7c	0.008579131
177	0x3d81a3c6	0.063300654
178	0xbd6a346c	-0.0571789
179	0xbd31eb5c	-0.043437347
180	0x3d491d79	0.049100373
181	0x3dd56213	0.10419097
182	0xbe7c5cd7	-0.2464479
183	0x3dfd21c3	0.12359955
184	0xbe04301c	-0.12908977
185	0xbe82c863	-0.25543508
186	0xbe414c6a	-0.18876806
187	0xbb18f62e	-0.0023340094
188	0xbd8f914d	-0.07010136
189	0xbd3c0761	-0.045905475
190	0xbd9003a5	-0.07031945
191	0x3d27b488	0.040943652
192	0x3dbdba54	0.09264055
193	0x3e03bdc5	0.1286536
194	0xbd459417	-0.048236933
195	0xbdfbe6ef	-0.122999065
196	0xbc9172b4	-0.01775489
197	0x3d0564dc	0.03256689
198	0x3ca372e9	0.019952254
199	0x3dc3f8f7	0.09568971
200	0xbd00e7f3	-0.031471204
201	0xbe638675	-0.2221926
202	0xbe5f3cf6	-0.21800599
203	0xbddfa9cb	-0.10921057
204	0xbd0ce153	-0.034394573
205	0xbe2cc064	-0.16870266
206	0xbe78489c	-0.24246448
207	0xbe1ad357	-0.15119682
208	0xbe128997	-0.14310299
209	0xbdbe549f	-0.09293484
210	0xbe191ea6	-0.14953098
211	0xbe556e9e	-0.20842978
212	0x3b167086	0.0022955253
213	0x3c174bff	0.0092344275
214	0xbe880c41	-0.2657185
215	0xbd118c74	-0.035534337
216	0xbd441a10	-0.047876418
217	0x3d8141de	0.06311391
218	0x3d66a3d5	0.056308586
219	0xbe3e1376	-0.18562111
220	0x3dcdb94b	0.100451075
221	0x3d86da5c	0.065846175
222	0x3dea67d1	0.11445583
223	0x3e48349a	0.19551316
224	0x3de45307	0.11148649
225	0xbe0d9e33	-0.1382988
226	0x3e01ba73	0.12668781
227	0xbd1af232	-0.03782863
228	0x3e0c330c	0.13691348
229	0xbde118cb	-0.10991057
230	0xbd8773d3	-0.066138886
231	0x3be0d924	0.0068618227
232	0x3e1c8e7b	0.15288727
233	0xbe27825f	-0.16358326
234	0x3e2a829e	0.16651389
235	0x3d9cb4bd	0.076516606
236	0x3d9430b3	0.07235851
237	0x3df41a26	0.1191905
238	0x3dbdc81d	0.09266684
239	0x3d7b7df4	0.061399415
240	0x3e32c7a5	0.17458971
241	0xbcfc66c0	-0.030810714
242	0xbca99996	-0.020703118
243	0xbc5b68fd	-0.01339173
244	0xbddb7e53	-0.10717454
245	0xbdaeffd5	-0.0854489
246	0xbca79fb8	-0.020461902
247	0x3e37e252	0.17957428
248	0x3e4fee3a	0.2030572
249	0x3e40d302	0.18830493
250	0x3e0bdd81	0.13658716
251	0x3e105e37	0.1409844
252	0xbe351a5b	-0.17685835
253	0xbdebb341	-0.11508799
254	0xbdf565d5	-0.119823135
255	0xbb492005	-0.003068925
